weights_backup/char_model.onnx (onnx, 379905 bytes, 18 tensors)

dense_2/kernel:0 f4 [64, 19]
000000 3e 2b 1a 3e 9b e8 62 3e 05 f0 37 3e 8d 48 52 3e
       0.15055558 0.22159044 0.17962654 0.20535488
000010 50 75 b6 be cb bc 11 bf a9 fa 0a 3e 5c d9 d3 be
       -0.35636377 -0.569287 0.13572182 -0.4137677
000020 7d e9 e3 be 61 cd ff be d1 85 5e 3e 57 cf ff 3d
       -0.44514075 -0.4996138 0.21730734 0.12490719
000030 8b 33 cf be 74 4d 26 3e 42 67 e5 be 71 35 ac 3d
       -0.40469012 0.16240484 -0.44805342 0.08408631
000040 2a b5 2e 3e 6b 5e f9 be 00 17 14 bf 42 1d c8 3d
       0.17061296 -0.48704848 -0.57847595 0.097712055
000050 2e b4 86 bf 10 58 11 bf 0f 55 e2 be 32 e3 04 bf
       -1.0523736 -0.56775 -0.4420552 -0.5190917
000060 a2 6e 00 bf 1d 9c 6e 3e 4a 3d a1 bd 08 f4 29 3e
       -0.5016881 0.2330174 -0.07873018 0.16596997
000070 55 33 81 3e 0d d7 29 be 5c 70 8a 3e 4b 53 14 bb
       0.25234476 -0.16585942 0.27038848 -0.0022632654
000080 61 4d 5a bf e6 c1 63 3e a2 2a 8b be 52 53 57 be
       -0.8527432 0.22241935 -0.27180964 -0.21027878
000090 25 d5 da bd 61 f8 9a 3e 1a 78 04 bf e3 9c 4c 3e
       -0.10685185 0.30267623 -0.5174576 0.19981723
0000a0 6e 97 49 3e 75 58 2c bf b4 c2 15 bf 8a b4 8f be
       0.19686672 -0.67322475 -0.5850022 -0.28067428
0000b0 9e ac 42 bf 62 6f 89 3e e7 6b 84 3e b7 19 7b 3c
       -0.7604464 0.2684279 0.25863573 0.015325955
0000c0 bd 3a 0c 3e 84 31 81 be cf 16 96 bd cf 48 d0 be
       0.13694282 -0.2523309 -0.07328569 -0.4068055
0000d0 dc 95 15 bf 2c c5 15 bf 98 f5 62 be ac ec 47 be
       -0.5843179 -0.58503985 -0.22163999 -0.19523877
0000e0 83 e1 23 bf 11 04 6c 3e 75 bb 22 3e 08 87 34 3e
       -0.6401598 0.23048426 0.15891822 0.17629635
0000f0 91 1a 1f be d9 85 f9 3d 34 af c9 bd 85 44 1f 3e
       -0.15537478 0.121837325 -0.098478705 0.15553482
000100 11 7a e5 be 32 70 db be 93 4b a7 be b7 9e 0a bf
       -0.44819692 -0.42859036 -0.32674846 -0.5414843
000110 e2 90 b9 be 3f 46 15 3e 70 18 12 bf 17 f6 02 bf
       -0.3624335 0.14577578 -0.5706854 -0.51156753
000120 9e 11 ff be 05 d1 2c 3e 0b 40 3b 3e 64 76 00 bf
       -0.49818128 0.1687661 0.18286149 -0.5018065
000130 d1 41 59 3e a1 15 95 3d d5 e4 ec be b4 b2 5b 3e
       0.21216513 0.07279516 -0.46268335 0.21454889
000140 4a 44 7c 3e e4 8c 2d bf 87 26 c1 3d 6c 9b f0 bc
       0.24635425 -0.6779311 0.09431177 -0.029370986
000150 6b af e5 be 43 56 25 3e 09 76 b5 be 44 2d e8 3d
       -0.44860396 0.16146187 -0.35441616 0.11336759
000160 92 41 20 3e e4 b3 2b bf 42 ea 12 3d 33 9e 68 3d
       0.15650013 -0.67071366 0.035867937 0.056791496
000170 01 85 d3 be 3d 51 a5 be 99 16 b4 be bc 8c 96 be
       -0.4131241 -0.32288542 -0.3517349 -0.29404247
000180 6a cf 16 bf ae 0b 90 be 78 f5 c5 be 94 36 36 3e
       -0.5891024 -0.2813391 -0.3866384 0.17794257
000190 5b 48 05 be c6 4e de 3c d7 9a bb bd 73 ae ca be
       -0.13015883 0.027137171 -0.09160393 -0.3958622
0001a0 f3 d8 5c be f4 f5 b5 be 8c cd 7b 3e 54 dc a4 be
       -0.21567135 -0.3553921 0.24590129 -0.32199347
0001b0 d0 d7 68 3e a3 1d 6d 3e a2 fe 0b bf cd e1 35 3e
       0.22738576 0.23155837 -0.54685414 0.17761917
0001c0 9b c3 44 bc ad 61 5e 3e 38 c9 17 3e d2 53 02 bf
       -0.012009527 0.21716948 0.14822853 -0.5090915
0001d0 7c 13 07 bf ef 1e be be 36 50 12 bf d7 f1 95 3d
       -0.52764106 -0.37132975 -0.5715364 0.07321518
0001e0 0b d9 20 bf 34 71 6e 3e 36 5f 61 3e b6 6c 0e 3e
       -0.6283118 0.23285371 0.22008976 0.13908657
0001f0 0e ef f8 be 61 ac cd be 3a c1 85 be 27 d3 11 3e
       -0.48619884 -0.40170577 -0.26123983 0.14240704
000200 89 af f1 3d b7 58 05 bf 92 26 b2 be 37 cc d7 3d
       0.11801059 -0.52088493 -0.34795052 0.10536998
000210 f8 b7 04 3e ae 40 fa be 1d 1e 2e 3d 35 19 ec be
       0.12960804 -0.48877472 0.042509187 -0.4611298
000220 a0 38 26 3e 0d c6 00 3e 41 c8 ff be fa 60 f3 3d
       0.16232538 0.1257555 -0.4995747 0.11883731
000230 f7 98 e3 3d 40 c4 8c be 23 f7 b5 bc 86 97 13 bd
       0.1111316 -0.27493477 -0.02221257 -0.036033176
000240 6f 8f d5 3d 19 c7 02 3e 4b 67 40 bf 52 62 16 3e
       0.104277484 0.12771262 -0.7515761 0.14685944
000250 30 3e cf be 50 ab f9 be c2 81 76 be df 87 2c 3e
       -0.40477133 -0.48763514 -0.24072936 0.16848706
000260 a0 cd 07 be 3c b7 0b bf 70 75 e2 3d c1 7e 2e 3e
       -0.13262033 -0.5457647 0.11057556 0.1704054
000270 b2 70 c0 be 89 de 5f 3e f5 11 9c 3d 04 60 9b be
       -0.3758598 0.21862234 0.076206125 -0.30346692
000280 50 d5 1e bf 7d 11 26 be 1b ad 27 3e 14 ea 8b 3d
       -0.6204424 -0.16217609 0.16374628 0.06831756
000290 f1 27 cd bd ff 28 c3 be d0 88 4d 3e be 40 93 bd
       -0.10017384 -0.38117215 0.20071721 -0.07190083
0002a0 fa c7 12 3e 88 bd 1a 3e 79 07 d0 be df b0 5f 3d
       0.14334098 0.15111363 -0.406307 0.054612037
0002b0 8c de 5e 3e 5a e9 e8 3a bb 80 95 be 2d 91 b8 3d
       0.21764582 0.001776974 -0.29199776 0.09012065
0002c0 6d b1 ac 3b 20 01 a2 be c6 77 7e 3e 18 7d 52 be
       0.0052701742 -0.31641483 0.24850377 -0.20555532
0002d0 67 77 ff be cb 8e 6c 3e 7a 77 25 bf 9d fb f5 be
       -0.49895784 0.23101346 -0.6463543 -0.48043528
0002e0 42 ed ee be 36 5a 2b bf 16 6e 9e be ad e1 b5 be
       -0.46665388 -0.66934526 -0.30943364 -0.3552374
0002f0 a7 5d 86 3d 49 43 71 3e f7 1a 5e 3e f6 9a 6a be
       0.065608315 0.23560824 0.21689974 -0.22910675
000300 23 16 6f 3d 2a dd e0 be 71 5e 54 3e 9f e4 21 3e
       0.05837072 -0.43918735 0.20739152 0.15809868
000310 9b 60 59 3e 25 c2 e3 be 73 e9 0c bf 62 8b 33 3e
       0.21228258 -0.44484058 -0.55043715 0.17533639
000320 af 13 32 bd b4 ac 95 be 16 63 08 bf 72 87 7b 3e
       -0.043475803 -0.29233325 -0.53276193 0.24563387
000330 21 06 00 bf 70 5d b9 be 63 43 7e 3e 3c 93 23 bf
       -0.5000935 -0.362041 0.24830393 -0.63896537
000340 1c 6f 1a bd c8 a9 08 bf f6 44 11 3e 69 dd fa 3d
       -0.03770362 -0.53384066 0.14186463 0.12249262
000350 0a 77 20 3d 20 25 73 bd ab 24 1b bf 74 be ef be
       0.039176024 -0.059361577 -0.60602826 -0.46824992
000360 de db a5 be 98 58 0e 3e 5d 44 d2 be 86 24 10 3e
       -0.32394308 0.13900983 -0.41067782 0.14076433
000370 69 f4 4c bf bf 82 da be fb 73 3d 3e dc 98 95 bd
       -0.8006044 -0.42677876 0.18501274 -0.07304546
000380 f3 aa 15 3e fd 3c 31 3e 5c 58 56 bf 34 e6 f6 be
       0.14615993 0.17308421 -0.83728576 -0.48222506
000390 71 7a 08 bf ca 77 1d 3e 66 d5 c0 be c9 fc e2 be
       -0.5331183 0.15377727 -0.3766281 -0.44333485
0003a0 5f 16 0c bf d7 3d 1f bf 0d bf a7 be 33 2f a0 be
       -0.54721636 -0.62203735 -0.32762948 -0.3128601
0003b0 29 1c c5 be 26 88 b8 3d 34 08 1b 3e 30 84 dd be
       -0.38498047 0.09010343 0.15139848 -0.43264914
0003c0 6b 73 25 be df ec 54 3e c9 d5 74 3e 3a 62 38 3e
       -0.1615731 0.20793484 0.23909678 0.1800622
0003d0 5f a3 0d 3d 5b 97 10 bf 5e 2b 4a bd d3 f7 20 3e
       0.03457963 -0.5648095 -0.049357764 0.15719537
0003e0 97 b6 de 3d 58 9e 0a 3e 26 23 e2 3d d6 11 5f 3c
       0.1087467 0.13536966 0.1104186 0.013615092
0003f0 9e d3 aa 3d 18 d3 42 3e ff 5e ba be fc aa 79 be
       0.08341144 0.19025838 -0.364006 -0.24381632

dense_2/bias:0 f4 [19]
000000 e1 2f 2a bd a2 68 d3 bd 92 c8 b8 bd fc a2 eb 3d
       -0.041549567 -0.103226915 -0.09022631 0.11505696
000010 86 62 32 bd 21 61 51 be 90 a8 04 be d3 04 7f 3e
       -0.04355099 -0.20447208 -0.12954926 0.24904184
000020 51 83 d0 bc 5c e6 8d bd 32 e3 cb bd 11 c8 e7 3c
       -0.025453242 -0.06928703 -0.099554434 0.028293641
000030 3a bf 53 be 22 91 31 be 2d f3 0a be 1c 46 37 be
       -0.20678416 -0.1734052 -0.13569327 -0.17897838
000040 b5 d1 82 3d e7 b9 bf bd a5 46 e1 3c
       0.06387655 -0.0936163 0.027499506

dense_1/kernel:0 f4 [576, 64]
000000 b0 e2 2e bc 1e e9 a2 3c 50 2f 6a bd 6b d0 cf 3b
       -0.010674164 0.01988655 -0.057174027 0.006341984
000010 4b 12 e8 bd 27 ee 06 3d 67 1a 9b 3d 72 82 d5 3d
       -0.11331614 0.032941964 0.07573395 0.10425271
000020 58 de 81 3c 39 1c 8e bd 99 d5 dc bd 8f 27 5c 3d
       0.015853092 -0.06938977 -0.10782928 0.053748664
000030 f3 2f c6 3d 34 60 b4 3d c1 da 12 3e 42 20 a3 3c
       0.09677114 0.08807412 0.1434126 0.019912843
000040 0a e5 b1 bd a1 df 21 3e 35 ef ec 3d b4 e4 0d 3d
       -0.08686264 0.15807964 0.115690626 0.034641936
000050 e8 68 87 bd 73 0c 29 3e 6e e2 c5 bb e6 1b 22 3e
       -0.06611806 0.16508655 -0.0060389554 0.15830955
000060 e0 8e 2e bd 8a 25 a7 3d 34 dd 79 3d 0a 7c fb 3d
       -0.042616725 0.08161457 0.06100197 0.12279518
000070 b3 a8 d2 3b c5 58 85 3c f7 43 5e 3d 3f 2d f0 bd
       0.006428802 0.01627768 0.054264035 -0.1172738
000080 92 e3 35 be 21 26 74 3b c3 9e 28 3d eb e5 fe 3d
       -0.17762592 0.0037254172 0.041167032 0.12446197
000090 49 38 df 3d 94 75 c6 bd 92 5e 88 bd f3 01 d9 bb
       0.108994074 -0.09690395 -0.06658663 -0.006622547
0000a0 54 a1 7e bc 92 f8 99 3b ff 60 4b bd 95 0f 99 bc
       -0.015541393 0.0046988213 -0.04965305 -0.018684188
0000b0 12 c2 81 bc e0 38 cd 3c a9 50 c1 bb 0a 93 f1 bc
       -0.01583961 0.025051534 -0.005899508 -0.029489059
0000c0 78 1f 46 3d 90 8f 69 bd 6e 16 93 3d be 5f 3f be
       0.048369855 -0.057021677 0.071820125 -0.18688866
0000d0 02 63 f4 bc 3c e5 c4 3d d8 08 f8 3c 9d ea da 3c
       -0.029832367 0.096140355 0.030277655 0.0267232
0000e0 c4 90 42 be b5 99 81 bd a9 42 b0 bc e5 15 a1 3d
       -0.19000536 -0.063281454 -0.021516161 0.07865504
0000f0 f9 5c 62 3d 5f 0d 02 3e 21 65 79 3d 3d fd 71 bd
       0.055264447 0.12700413 0.06088746 -0.059079397
000100 c8 65 f5 bc 1e ab e7 bd 8c 88 60 3d 57 c7 a1 3d
       -0.02995576 -0.11311935 0.05481772 0.07899349
000110 46 4b 92 3a ce 6a 2f bd c4 8f 1c 3d 7f a7 10 bc
       0.0011161349 -0.042826466 0.038223043 -0.008828997
000120 22 10 7d 3c d1 ec c0 bb 27 3d cf bb 98 7c da ba
       0.015445741 -0.0058876057 -0.0063244286 -0.0016669212
000130 ad e8 32 be c4 4f 0c 3d 64 f3 28 bd 10 87 65 bd
       -0.17471571 0.034255758 -0.04124774 -0.05603701
000140 0c ac b2 3d e4 44 75 3d 14 ba 9d 3c 46 a6 88 bc
       0.087242216 0.059880152 0.019253768 -0.016680848
000150 24 de 81 3d a3 43 3b bd ef ce 13 3e 03 bd 3f be
       0.06341198 -0.0457188 0.14434408 -0.18724446
000160 ea 2a a5 3d 15 75 c2 bd 59 50 78 3d b4 3d 1e 3b
       0.08064826 -0.09494988 0.0606235 0.0024145665
000170 99 26 04 3d 4a 19 83 bd d2 de 0e 3e 60 3e 17 3d
       0.032263372 -0.06401308 0.13952187 0.03692472
000180 7b 43 86 bc 93 88 29 be e2 28 ba 3d 03 05 e8 bc
       -0.0163896 -0.16556005 0.09089829 -0.028322702
000190 5b 60 1f bd 6f c4 7a 3c 4e 17 fa 3c 34 84 ba 3d
       -0.03891025 0.0153056225 0.03052869 0.09107247
0001a0 6e 76 ca bd d9 3b 61 3d 7c b4 78 bd cf c0 f3 bc
       -0.0988587 0.054988716 -0.060719 -0.029755024
0001b0 83 04 f2 bd 43 b8 f9 bc 0a ac be 3d 1a d1 82 bc
       -0.11817267 -0.03048337 0.093101576 -0.015968848
0001c0 a4 4d b4 bd d2 a4 ee 3d bc 5f a0 3d 4e ad 5e bd
       -0.08803871 0.11652531 0.0783076 -0.054364495
0001d0 4f 2d 4e bd bd fc 90 3d 92 c4 80 bd 77 38 07 bd
       -0.05033618 0.07079456 -0.06287493 -0.033012833
0001e0 8e 86 9d bd 17 7f 04 be 2a 57 78 3d 54 13 95 bd
       -0.0769168 -0.12939106 0.06063 -0.07279077
0001f0 cb 3d 01 be d3 1c 48 bd 7d 72 3d bd 71 7b 3f 3e
       -0.12621228 -0.048855614 -0.046251763 0.18699433
000200 a3 ae 0e 3d 2c 2f cc 3c 1b 41 00 be 1e 36 c0 bd
       0.034834515 0.024924837 -0.12524836 -0.09385322
000210 bf 1a 8b bd 32 27 cf 3d f5 4f 05 3e 68 b5 59 3c
       -0.06792211 0.10114898 0.13018782 0.0132878795
000220 f0 15 b6 3d ab dc ae bb c3 49 d5 3d 3f 30 8c 3c
       0.08890903 -0.0053363643 0.104144596 0.01711285
000230 27 ef 3e bc 8d 7a f1 3d df da 2b 3e 9b ed 07 3e
       -0.011653698 0.11790953 0.16782711 0.13274233
000240 d0 fe 70 bc 1c 83 c8 bd f0 db a5 3d 9d 7a ae bd
       -0.0147091895 -0.09790632 0.080985904 -0.085194804
000250 d8 f7 5c bd de 8e 92 3d 19 4a 9a 3b d4 ef 1c be
       -0.0539473 0.07156156 0.00470854 -0.15325862
000260 b0 33 d7 3d 67 92 78 bd ad 2a d9 3d 9a 62 00 be
       0.105079055 -0.060686495 0.10603843 -0.12537614
000270 6d 29 96 bc bd 38 8e 3c 9f 0a 1c be b1 fd 96 bc
       -0.0183303 0.01736104 -0.15238427 -0.018431516
000280 2d 67 29 be 54 b2 bb 3d cc 5e 7b bd 59 1e 66 3d
       -0.16543265 0.09164873 -0.061369702 0.056181286
000290 28 8f 09 bd a7 52 1c 3d 43 5c 32 3c bf 33 3c bc
       -0.03358379 0.03816476 0.010886255 -0.011486947
0002a0 52 d0 27 3d d3 6f f1 3d 6e d3 79 bc 0f fd a9 3c
       0.040970154 0.11788907 -0.015248163 0.02075055
0002b0 ee e3 31 bc af 60 2f bd 0c 5a 7c bd df b0 22 3e
       -0.010857565 -0.042816814 -0.061609313 0.15887783
0002c0 1d 0c 67 3d e6 37 23 bd 9a 17 a7 bd 5e 4e 93 bd
       0.056408037 -0.03984823 -0.081587985 -0.07192682
0002d0 ab bd 0d bd 5f 8d b7 3d 32 53 61 bd ec 66 de 3c
       -0.03460471 0.08962511 -0.05501098 0.027148686
0002e0 e4 9d 0d 3c 16 1f dc bd 1d f7 13 bd 2b e7 2a 3e
       0.008643601 -0.10748117 -0.036124337 0.16689746
0002f0 46 9e 0d be e2 35 50 bd e2 d2 78 3d c2 6b c7 3c
       -0.13829908 -0.050832637 0.06074799 0.024343375
000300 86 ca 35 bd ca 01 a8 3c a0 30 fd 3d a5 36 fa bc
       -0.044382595 0.020508666 0.1236279 -0.030543635
000310 00 9c 42 3a ea 63 5b bd cd 32 05 3e ed 10 94 bb
       0.00074237585 -0.053562082 0.1300766 -0.0045186193
000320 32 41 80 bd 99 78 da 3d 91 3d 65 be d0 dd b7 bc
       -0.06262435 0.106675334 -0.22386767 -0.022444636
000330 5a a0 e2 3c e8 69 f0 3b a8 83 c4 bc 10 11 28 3d
       0.027664352 0.0073368438 -0.02398856 0.041031897
000340 92 37 cc 3d 95 10 22 3d ec 33 ea 3b 27 47 0e be
       0.09971537 0.039566595 0.007147303 -0.1389433
000350 f8 ea 67 bd 94 9f e1 3d 3f 26 02 be 9b d2 6e be
       -0.056620568 0.11016765 -0.12709902 -0.23322527
000360 58 99 71 3c 93 8b da bc 0d ed 1b bd f5 a7 d7 bc
       0.014746033 -0.026677882 -0.038067866 -0.026325205
000370 71 4c 9a 3d ef ee 1c be ba 09 35 3e 9a 93 a2 bd
       0.07534111 -0.15325521 0.17679492 -0.07938309
000380 fe 8d 9f 3d d6 a8 fd 3c b7 a4 cb 3d 66 39 a8 bd
       0.07790755 0.030964296 0.09943526 -0.08214073
000390 26 f4 de 3d 03 fb 92 bd d8 e7 1b 3e a5 23 57 3d
       0.10886411 -0.07176783 0.1522516 0.052524228
0003a0 08 6d a9 bb 74 ab a0 bd 09 72 ba 3c de be c3 bd
       -0.0051704682 -0.07845202 0.022759454 -0.095578894
0003b0 5a bf 0e 3b 14 c6 5d 3d 2e 61 1e bd 0f e0 84 3d
       0.0021781535 0.05414398 -0.038666897 0.06488048
0003c0 8b 93 ac bd 47 4c 02 3e 0c 90 41 bd 43 48 10 3d
       -0.08426579 0.1272441 -0.047256514 0.035225164
0003d0 d8 22 a0 3d fe 80 0a bd 9c 6d 5b bd 62 e3 21 3d
       0.07819146 -0.033814423 -0.05357133 0.03952349
0003e0 d7 34 1a be af 70 63 3c 6a 9e e4 3d 15 be e3 3d
       -0.1505922 0.013881846 0.111630276 0.1112024
0003f0 2a 8b 86 3d b3 50 b0 bb e6 14 31 bd 15 23 49 3d
       0.06569512 -0.005380714 -0.04323282 0.049105722

dense_1/bias:0 f4 [64]
000000 24 a4 b8 bc ab fa 31 bd 1e 86 8b bd 71 7a 37 bd
       -0.022539206 -0.043451946 -0.0681269 -0.044794504
000010 10 6b a0 bd c9 f0 f9 bc aa 0c 0f bd 3e a2 9e bd
       -0.078329206 -0.030510323 -0.034924187 -0.07745789
000020 19 64 5d bd 67 c6 62 bd b4 21 1a bd 89 ec 2c bd
       -0.05405054 -0.055364992 -0.037629798 -0.042217765
000030 80 4a 36 bc f8 ef ee b9 36 d0 a1 bb c8 30 2f bd
       -0.011126161 -0.00045573688 -0.0049381508 -0.04277113
000040 82 b7 11 bd 54 79 13 bd 7e ed 1f bd 27 ed 68 bd
       -0.035575397 -0.03600438 -0.03904485 -0.05686679
000050 f2 fd 99 bd 69 13 6b bc b2 e6 c7 bc ab 03 b2 bc
       -0.07519139 -0.014347889 -0.024401996 -0.021730265
000060 6c 7c 2b bd 28 83 f5 bc 7a f8 9c bd 23 e1 75 bd
       -0.041866705 -0.029969767 -0.07664581 -0.06002916
000070 09 b9 2a bd 30 eb 2b bd a2 9d 49 bd eb eb 46 bd
       -0.04168037 -0.04197234 -0.049222596 -0.048564833
000080 13 0b 8f 3c 42 fe 56 bd c2 bd 47 bd ee a8 6d bd
       0.017461335 -0.052488573 -0.04876495 -0.058022432
000090 62 53 af bc fb 9f 6d bc 7b b4 b5 bc 94 18 98 bc
       -0.021402065 -0.014503474 -0.022180786 -0.018566407
0000a0 48 76 93 bd f0 3a 4f bd fa d8 25 bd f7 63 27 bd
       -0.07200295 -0.050593317 -0.040490128 -0.04086682
0000b0 9e f1 29 bc 3c 68 00 bd e9 3a 9b bd 8a a0 51 bd
       -0.010372547 -0.031349406 -0.075795956 -0.051178493
0000c0 01 ea 0b bd 48 12 11 bd 76 b3 32 bd 8b 95 d0 bc
       -0.03415871 -0.035417825 -0.04362818 -0.025461933
0000d0 93 4b e0 bc b7 b3 0b bd 86 36 25 bd 9d 0d 96 bd
       -0.027379787 -0.034106936 -0.0403352 -0.07326815
0000e0 ef 9e 47 bd 40 12 f3 bb ea 5d 07 bc 68 d8 03 bd
       -0.048735555 -0.007417947 -0.008262137 -0.032188803
0000f0 46 db 1a bd c9 d9 71 bd 1f 62 4e bd 99 b5 e3 bc
       -0.03780677 -0.059045587 -0.050386544 -0.027796553

conv2d_3/kernel:0 f4 [64, 64, 3, 3]
000000 6d cc 2b bd d4 66 0b bd e3 19 c4 bc 92 61 2c 3d
       -0.041943002 -0.03403361 -0.023938125 0.042085238
000010 66 79 dd bc b8 2d 94 bd 43 70 be 3b ec 50 84 ba
       -0.027035426 -0.07235283 0.0058117225 -0.0010094917
000020 c9 85 bd 3d 9d 81 42 3d 39 a5 79 bc fd e6 ae bd
       0.09254033 0.04748689 -0.015237146 -0.08540151
000030 95 ec 57 3d 33 ce 8a bd aa ff a3 3c ec 80 f1 bc
       0.052715857 -0.06777611 0.020019371 -0.02948042
000040 47 6a 96 bd 4e bb 47 3c 10 41 28 3d a8 76 31 bc
       -0.073444895 0.012190653 0.041077673 -0.0108315125
000050 bc db 84 bd 2e c9 a9 bc 65 a2 6f bc c1 21 6f 3c
       -0.064872235 -0.020725813 -0.01462612 0.01459545
000060 a1 c8 69 3c 38 82 fa bb 27 69 09 bd 0d 50 74 ba
       0.014269025 -0.007644918 -0.033547547 -0.000931979
000070 7c 4f 1a bd 81 77 be 3d 48 87 c1 bc c2 28 86 3c
       -0.03767346 0.09300137 -0.023624077 0.016376857
000080 dc 23 54 3d 3a 1c 14 3d 91 20 27 3d 5a 61 86 bd
       0.05179201 0.03615973 0.040802542 -0.06561537
000090 78 5b c0 3b 4c 1e 3d 3d 3e 1b 0e 3d 28 05 d0 bb
       0.005870279 0.04617147 0.03469395 -0.006348271
0000a0 d1 4c 80 bc 8b 4e cb bd e6 fb ec bc a9 f8 02 3d
       -0.015661629 -0.0992709 -0.028928708 0.031975422
0000b0 25 ba 15 3d a6 35 95 3c 0c e3 44 3d d0 5c 9f 3c
       0.036554474 0.018214058 0.04806809 0.019453436
0000c0 bf 97 4d 3d ba 8b 73 3d 8b 15 33 3c 37 90 be bc
       0.050193544 0.059459426 0.010930429 -0.023262126
0000d0 20 3f 36 3c 5b da 19 bd 9f cd 1d 3d b7 60 1f bd
       0.011123449 -0.037561756 0.038526174 -0.038910594
0000e0 73 c9 a5 bd 8d 8a ad 3a c8 ba 46 bd 11 96 aa 3d
       -0.08095064 0.0013240144 -0.048517972 0.08329404
0000f0 00 89 0c bd 4f bb aa bd bd eb aa 3d e2 c6 f3 bc
       -0.03431034 -0.083365075 0.08345745 -0.02975792
000100 fc 26 ac bd d2 8a 51 3d 3c cf fb bc fa 6a 4f bd
       -0.08405873 0.05115778 -0.030738465 -0.05063913
000110 94 6f 82 3a c9 84 1b 3d 0d d7 a7 bd ec 39 4c 3d
       0.0009951466 0.03796843 -0.081953146 0.049859926
000120 e9 52 4d bd 85 b6 34 3c 14 d4 74 bd cf 1c 98 3b
       -0.050127897 0.011029844 -0.059772566 0.004642106
000130 1a f0 94 3b 81 5e 9a bd 1e e8 e8 bc d7 48 9c 3d
       0.004545224 -0.075375564 -0.028430995 0.076310806
000140 29 f2 ed 3c 62 f0 f2 3c a1 b1 8a 3b 32 2b 33 3c
       0.029046135 0.02965564 0.004232601 0.0109355915
000150 45 29 07 bd 60 72 61 3d 26 ce 8b bd c0 e4 c8 bc
       -0.032998342 0.055040717 -0.06826429 -0.024523139
000160 11 73 cb bc e8 c3 75 bd 5e b1 5d bc 59 58 f4 bb
       -0.024835141 -0.060001284 -0.013531057 -0.007456821
000170 ed 56 94 bd a8 b9 12 bc 2a ac 01 bd 4d c4 15 bd
       -0.07243142 -0.008955397 -0.03165833 -0.03656416
000180 cb a0 dc bd 3c f7 0b bd c4 4a 22 bd 64 ac e6 3c
       -0.10772856 -0.034171328 -0.039622083 0.028158374
000190 bc 31 83 3c c3 da 9c bb 6b 76 9e bb 88 a7 89 3c
       0.016014926 -0.0047868206 -0.004835894 0.016803518
0001a0 95 ae 30 3d 6e eb 09 bd 79 cc 6a bd 75 d7 7a bd
       0.043135244 -0.03367179 -0.057323907 -0.061240632
0001b0 65 6d 2b 3c 94 5c ba bc c0 8e 75 bd 2f 2b 0e 3c
       0.010463093 -0.022749223 -0.05995059 0.008677288
0001c0 97 cb 07 3d f4 64 4b 3d 8b 0f eb bb fc 18 50 bc
       0.033153143 0.049656823 -0.0071734837 -0.012701269
0001d0 f2 c9 37 bc f5 34 18 bd 35 69 f2 3b 65 d4 95 bd
       -0.011217581 -0.03715988 0.0073977956 -0.07315902
0001e0 22 cf e6 bb 50 65 b8 bc 2d a9 b6 bc b1 ca 8b bd
       -0.007043735 -0.022509247 -0.022297466 -0.0682577
0001f0 b4 f8 ab bb 8f a3 8a 3d 17 e2 65 bc 1f 37 d4 ba
       -0.0052481536 0.067694776 -0.014030955 -0.0016190744
000200 a8 ed 3a bd 6e 79 11 bb ce 0c f7 bb ef 74 ab bc
       -0.045636803 -0.0022197622 -0.0075393682 -0.020929782
000210 ee d1 f1 bc 48 04 98 3b 64 4e 60 bd df 81 ae 3c
       -0.029519048 0.0046391822 -0.05476226 0.021302162
000220 dd 5c 90 3c e9 2b 67 3c fa cd d6 bc 36 40 07 39
       0.017622406 0.01410959 -0.026221264 0.00012898524
000230 71 ce 0d bb f8 73 b2 bb 0b 5b ce bc c2 28 f8 3c
       -0.0021637941 -0.0054459535 -0.025189897 0.030292872
000240 40 ac 18 3d c2 27 e5 3c d7 a2 12 be 6f 4c 9e 3d
       0.037273645 0.02797306 -0.14319931 0.07729422
000250 a7 69 8b bd 0a ca 5b bc ac 0d 99 3c 4f fc 4a 3d
       -0.06807261 -0.013414869 0.018683277 0.049557026
000260 5e 0f dc 3b 14 a3 16 3d 2d ba a4 3d 59 5a cc 3d
       0.006715699 0.036776617 0.08043323 0.0997817
000270 0b 9f 26 3d 9d bf fe bb 26 0d ac bc 4d d2 24 3d
       0.04067902 -0.007774307 -0.021002363 0.04023962
000280 fc af b1 3c e1 da ee 3c d2 67 56 3d e3 0d 14 bd
       0.021690361 0.029157104 0.052345105 -0.036146056
000290 48 2e 97 bc d7 9d bd 3c 8f 50 73 bd 12 e3 81 bc
       -0.018454686 0.023146553 -0.059403 -0.015855346
0002a0 53 38 75 3d cb 7a 1e bd f6 d0 f7 3b 21 72 f8 bb
       0.059868168 -0.038691323 0.007562752 -0.0075819646
0002b0 d0 d2 2b bd 9e f5 66 3d 10 9b 2e 3d c6 de 9e bb
       -0.041949093 0.056386583 0.042628348 -0.004848334
0002c0 fb 08 30 bd 85 24 6f 3d d9 56 63 bd 25 36 dc bd
       -0.042977314 0.058384437 -0.055502746 -0.10752515
0002d0 86 bc 65 bb 6d 8f 80 3b 46 db bd 3c e4 6c 7e bd
       -0.0035054996 0.0039233477 0.023175847 -0.062115565
0002e0 3c 4f 1c bd 19 83 9a bc e0 da c5 bc 1c 22 a4 bd
       -0.0381615 -0.01886134 -0.02415222 -0.08014318
0002f0 41 4d cf bb 8b 85 1a 3c 97 ec b8 bc d8 75 c2 3a
       -0.006326348 0.009431253 -0.022573752 0.0014836146
000300 28 2c 16 3d 59 83 9a 3c 2f fd 08 3d 8f 2b 3d bc
       0.036663204 0.01886146 0.03344458 -0.01154603
000310 58 aa 57 bd 1e 9c 34 bd 11 cc 12 bd 74 7d c8 3c
       -0.052652687 -0.044094197 -0.035839144 0.024473883
000320 74 1c ee bd c6 bf ee bc 44 72 c9 3c f6 9f 04 3d
       -0.11626521 -0.02914418 0.024590619 0.032379113
000330 33 a6 30 3c d8 9b 4c 3d c3 9b c9 3a 6b a9 33 3d
       0.0107818125 0.04995331 0.0015381504 0.04386274
000340 7f 48 46 bd 22 a0 d4 3b ab 36 6c 3c eb 74 a6 bd
       -0.04840898 0.006488816 0.014417331 -0.08127769
000350 fc f8 0d 3e fd 9f 8f bd 71 64 b6 bd 1a af 46 3d
       0.13864511 -0.07012937 -0.089058764 0.048506834
000360 78 6d fa bc e6 de 5f 3c 3e 00 68 bc 72 ee d0 bc
       -0.030569777 0.013663983 -0.014160214 -0.025504325
000370 a0 b5 02 bd b7 36 35 bc 61 19 08 bd 50 ef 62 bd
       -0.031911492 -0.011060408 -0.03322733 -0.055404007
000380 ab 7d c4 bc d8 a7 18 3d 8d 93 94 3d 09 00 5b bd
       -0.023985704 0.037269443 0.072547056 -0.05346683
000390 7e d1 43 3c d7 b3 31 bd cf cd d9 3b 0b e5 81 bd
       0.011951802 -0.0433844 0.0066468487 -0.063425146
0003a0 6f c7 0f 3d 92 b0 b0 3c d5 ec 1e 3c b3 69 5c bd
       0.035102304 0.02156857 0.00970002 -0.05381174
0003b0 74 b9 6d 3d ed 7e 68 bc 34 5d 38 bd 24 7b 84 3c
       0.05803819 -0.014190418 -0.04501076 0.016172
0003c0 56 18 36 3d ed 20 63 bc 7e 57 f6 bb f9 5b 32 3d
       0.044456802 -0.013862831 -0.007517754 0.043544743
0003d0 c8 6a 44 3d 25 5b 51 3d 81 af 4e 3d 33 40 8a bb
       0.047953397 0.051112313 0.050460342 -0.004219079
0003e0 3c 58 d8 bd 1f 81 90 bd ef bf cc bd 81 35 73 3d
       -0.10563704 -0.07055878 -0.09997546 0.059377197
0003f0 fe 25 29 3c 90 af 26 bd 42 bf 1a be 39 a7 10 bc
       0.010323999 -0.040694773 -0.15112022 -0.0088289315

conv2d_3/bias:0 f4 [64]
000000 0e 59 0e be 8a 7e 07 be 7e c3 14 bd fa ab 91 bd
       -0.13901159 -0.13231865 -0.03631925 -0.0711288
000010 60 66 a7 bb e1 2a af bd 69 4b 98 bd b9 00 90 bd
       -0.0051086396 -0.085531004 -0.07436258 -0.07031388
000020 68 e2 f2 bd 7d 77 af bd ee e0 d8 bd d7 e2 00 be
       -0.1185959 -0.085677125 -0.10589777 -0.12586533
000030 e7 28 ca bb 5a ab 0c be 51 f8 bf bd 5e 90 a8 bd
       -0.0061694267 -0.1373724 -0.093735345 -0.08230661
000040 a8 f3 b0 bd fd 47 bb bd 02 da a8 bd 5c 07 34 be
       -0.08640224 -0.0914459 -0.08244707 -0.17580932
000050 a8 25 be bd 14 e3 59 bd 4b 79 c2 bd 18 ca 41 bd
       -0.09284526 -0.053195074 -0.09495791 -0.047311872
000060 b5 84 71 bd d9 2c 28 be 27 36 03 be 46 81 2f be
       -0.05896445 -0.16423358 -0.12813626 -0.17139158
000070 48 67 4a bd 69 a3 98 bd 64 a2 fe bd a0 2e 08 b9
       -0.049414903 -0.07453043 -0.12433317 -0.0001298734
000080 3e ce b7 bd 93 65 3b bc 67 b0 02 be 3b b7 fd 3b
       -0.089748845 -0.011437791 -0.12762605 0.00774279
000090 e0 3a bd bd e5 04 c8 bd 44 69 aa bd 96 b0 6f bd
       -0.09239745 -0.097665586 -0.08320859 -0.058518015
0000a0 b3 07 58 3c ce 33 4f 3d 6d 9f 7e bd 38 3d 11 bd
       0.013185429 0.050586514 -0.06216376 -0.035458773
0000b0 1a e3 46 be c0 f3 bf bd 62 83 f1 bd b3 d0 24 be
       -0.1942257 -0.093726635 -0.117926374 -0.16095237
0000c0 ea 0c 96 bd f2 32 cf bd 39 87 09 be e7 9f bc bd
       -0.07326682 -0.10117139 -0.1343049 -0.092101865
0000d0 0a e3 48 3d 00 ff 13 bd 4f e8 db bd b9 49 66 bd
       0.049044646 -0.03613186 -0.10737669 -0.05622265
0000e0 29 b9 a5 bd 77 bd d7 bd 69 70 e3 bd 00 8a 4b be
       -0.08091957 -0.105341844 -0.11105425 -0.19876862
0000f0 28 b1 f3 bc 99 41 76 bd 3d a2 76 bd 54 32 f0 bd
       -0.02974756 -0.060121153 -0.060213316 -0.11728349

scale f4 [64]
000000 45 6c 64 40 3d 77 46 40 8e 3c 2b 40 75 df 4b 40
       3.5691082 3.1010277 2.675571 3.1855137
000010 4b 57 40 40 d5 66 2b 40 b9 4b 42 40 1e 9c 56 40
       3.005328 2.6781514 3.0358717 3.3532786
000020 0f 90 69 40 b7 79 19 40 03 99 22 40 cf a9 1a 40
       3.6494176 2.398054 2.540589 2.4166143
000030 4d 53 3b 40 ef d5 1b 40 5f b3 f3 3f 01 0d 91 3f
       2.9269593 2.4349325 1.9039115 1.1332093
000040 b1 9a 48 40 d5 71 3e 40 f0 41 d9 3f 86 40 35 40
       3.1344416 2.9756978 1.6973248 2.8320632
000050 2d 11 00 40 2a 7e 1b 40 b8 d6 3b 40 b0 9a 3e 40
       2.0010483 2.4295754 2.9349804 2.9781914
000060 6d eb 18 40 1d 3a 2f 40 25 2a f7 40 d6 ae 7b 40
       2.3893692 2.737922 7.7238946 3.9325461
000070 9e 7b 2d 40 30 cf 45 40 f9 b7 0f 40 00 5c 0b 40
       2.71067 3.0907707 2.2456038 2.1774902
000080 91 e0 55 40 23 23 07 40 c1 49 5b 40 bb bc 56 40
       3.3418314 2.1115196 3.4263766 3.3552692
000090 dd 0a 62 40 94 79 15 40 1c 1e 85 40 4a 20 fb 3f
       3.531913 2.3355455 4.1599255 1.9619229
0000a0 88 c8 53 40 08 5b 20 40 a2 74 58 40 6f f7 17 40
       3.3091145 2.505556 3.3821187 2.3744771
0000b0 7c 96 12 40 43 41 64 40 fd 8c b3 3f d6 20 49 40
       2.2904348 3.5664833 1.4027401 3.1426291
0000c0 4b 51 80 40 b2 0d 34 40 ae d5 97 40 08 61 1a 40
       4.0099235 2.813336 4.744834 2.4121723
0000d0 8d f0 39 40 a3 6c 3e 40 22 58 61 40 6f b9 89 40
       2.905307 2.9753807 3.5210042 4.303886
0000e0 3d 34 2d 40 6e 53 17 40 1d ed 6e 40 fe 35 1d 40
       2.7063134 2.3644671 3.7332222 2.4564204
0000f0 39 31 44 40 a8 c4 5d 40 9c b5 0c 40 75 6f 53 40
       3.0655043 3.465128 2.1985846 3.3036778

bias f4 [64]
000000 64 d8 47 bf fc 31 7e bf 9b a8 35 bf cf 76 83 bf
       -0.7806456 -0.9929502 -0.70960397 -1.0270633
000010 4c ce 1c bf 79 96 22 bf 22 d3 86 bf e5 e7 1f bf
       -0.61252284 -0.63510853 -1.0533183 -0.6246322
000020 86 e7 87 bf e8 e0 25 bf b1 49 8c be 4c e5 58 bf
       -1.061753 -0.64796305 -0.27399972 -0.8472488
000030 06 46 82 bf b6 c0 2a bf 24 d8 25 bf 66 97 14 bf
       -1.017762 -0.66700304 -0.6478293 -0.58043516
000040 a5 4b 58 bf 3a bf 20 bf a4 3b 12 bf 40 a4 48 bf
       -0.84490424 -0.6279179 -0.57122254 -0.78375626
000050 f5 88 af be fb 67 70 bf e7 93 7e bf 55 94 4c bf
       -0.34284177 -0.9390866 -0.9944443 -0.79913837
000060 d6 af d6 be 59 25 68 bf 00 05 24 bf 27 20 60 bf
       -0.41931027 -0.9068199 -0.6407013 -0.8754906
000070 83 67 22 bf e9 d2 d6 be 9f 3c 51 bf 2a 82 6e bf
       -0.63439196 -0.41957787 -0.81733125 -0.93167365
000080 7d 0e 0a bf e6 63 32 bf 8e 06 27 bf f5 bf 8f bf
       -0.5392836 -0.6968368 -0.65244377 -1.1230456
000090 1b f5 4a bf 86 4e 79 bf 80 e4 20 bf 6c 71 22 bf
       -0.7928025 -0.9738544 -0.62848663 -0.6345432
0000a0 37 c6 6a bf 50 28 79 bf 88 1a 06 bf 8e b3 3e bf
       -0.917087 -0.97327137 -0.52384233 -0.7449273
0000b0 0c ab 58 bf e6 12 a2 bf b1 bb 59 bf 75 4f 68 bf
       -0.84635997 -1.2662017 -0.8505202 -0.9074624
0000c0 2d a8 2c bf 79 80 25 bf 66 9a 3a bf 75 4d 56 bf
       -0.67444116 -0.6464916 -0.72891843 -0.8371194
0000d0 9d 38 89 bf 96 a2 4c bf 8d bb 6b bf 5a e9 36 bf
       -1.0720402 -0.79935586 -0.92083055 -0.71449816
0000e0 79 6a 1a bf 88 c8 3a bf 1b 22 76 bf 46 da 4e bf
       -0.60318714 -0.72962236 -0.9614579 -0.8080181
0000f0 df b1 1d bf 71 bb 5a bf a7 12 31 bf 83 5c 61 bf
       -0.61599535 -0.8544226 -0.69169086 -0.88031787

mean f4 [64]
000000 00 00 00 00 00 00 00 00 00 00 00 00 00 00 00 00
       0.0 0.0 0.0 0.0
000010 00 00 00 00 00 00 00 00 00 00 00 00 00 00 00 00
       0.0 0.0 0.0 0.0
000020 00 00 00 00 00 00 00 00 00 00 00 00 00 00 00 00
       0.0 0.0 0.0 0.0
000030 00 00 00 00 00 00 00 00 00 00 00 00 00 00 00 00
       0.0 0.0 0.0 0.0
000040 00 00 00 00 00 00 00 00 00 00 00 00 00 00 00 00
       0.0 0.0 0.0 0.0
000050 00 00 00 00 00 00 00 00 00 00 00 00 00 00 00 00
       0.0 0.0 0.0 0.0
000060 00 00 00 00 00 00 00 00 00 00 00 00 00 00 00 00
       0.0 0.0 0.0 0.0
000070 00 00 00 00 00 00 00 00 00 00 00 00 00 00 00 00
       0.0 0.0 0.0 0.0
000080 00 00 00 00 00 00 00 00 00 00 00 00 00 00 00 00
       0.0 0.0 0.0 0.0
000090 00 00 00 00 00 00 00 00 00 00 00 00 00 00 00 00
       0.0 0.0 0.0 0.0
0000a0 00 00 00 00 00 00 00 00 00 00 00 00 00 00 00 00
       0.0 0.0 0.0 0.0
0000b0 00 00 00 00 00 00 00 00 00 00 00 00 00 00 00 00
       0.0 0.0 0.0 0.0
0000c0 00 00 00 00 00 00 00 00 00 00 00 00 00 00 00 00
       0.0 0.0 0.0 0.0
0000d0 00 00 00 00 00 00 00 00 00 00 00 00 00 00 00 00
       0.0 0.0 0.0 0.0
0000e0 00 00 00 00 00 00 00 00 00 00 00 00 00 00 00 00
       0.0 0.0 0.0 0.0
0000f0 00 00 00 00 00 00 00 00 00 00 00 00 00 00 00 00
       0.0 0.0 0.0 0.0

var f4 [64]
000000 00 00 80 3f 00 00 80 3f 00 00 80 3f 00 00 80 3f
       1.0 1.0 1.0 1.0
000010 00 00 80 3f 00 00 80 3f 00 00 80 3f 00 00 80 3f
       1.0 1.0 1.0 1.0
000020 00 00 80 3f 00 00 80 3f 00 00 80 3f 00 00 80 3f
       1.0 1.0 1.0 1.0
000030 00 00 80 3f 00 00 80 3f 00 00 80 3f 00 00 80 3f
       1.0 1.0 1.0 1.0
000040 00 00 80 3f 00 00 80 3f 00 00 80 3f 00 00 80 3f
       1.0 1.0 1.0 1.0
000050 00 00 80 3f 00 00 80 3f 00 00 80 3f 00 00 80 3f
       1.0 1.0 1.0 1.0
000060 00 00 80 3f 00 00 80 3f 00 00 80 3f 00 00 80 3f
       1.0 1.0 1.0 1.0
000070 00 00 80 3f 00 00 80 3f 00 00 80 3f 00 00 80 3f
       1.0 1.0 1.0 1.0
000080 00 00 80 3f 00 00 80 3f 00 00 80 3f 00 00 80 3f
       1.0 1.0 1.0 1.0
000090 00 00 80 3f 00 00 80 3f 00 00 80 3f 00 00 80 3f
       1.0 1.0 1.0 1.0
0000a0 00 00 80 3f 00 00 80 3f 00 00 80 3f 00 00 80 3f
       1.0 1.0 1.0 1.0
0000b0 00 00 80 3f 00 00 80 3f 00 00 80 3f 00 00 80 3f
       1.0 1.0 1.0 1.0
0000c0 00 00 80 3f 00 00 80 3f 00 00 80 3f 00 00 80 3f
       1.0 1.0 1.0 1.0
0000d0 00 00 80 3f 00 00 80 3f 00 00 80 3f 00 00 80 3f
       1.0 1.0 1.0 1.0
0000e0 00 00 80 3f 00 00 80 3f 00 00 80 3f 00 00 80 3f
       1.0 1.0 1.0 1.0
0000f0 00 00 80 3f 00 00 80 3f 00 00 80 3f 00 00 80 3f
       1.0 1.0 1.0 1.0

conv2d_2/kernel:0 f4 [64, 32, 3, 3]
000000 48 40 34 bc c9 d1 e2 39 eb 1b 07 3a 55 2c a7 bb
       -0.011001654 0.0004326238 0.00051540014 -0.0051017203
000010 e3 8b fc 3b 01 b9 78 3c 6c 1f ee 3c d1 da b2 3b
       0.0077071055 0.015180827 0.029067717 0.005458214
000020 2f 25 84 3c 63 4e 1d 3b 34 b4 4d bb 96 5c 8e b9
       0.016131012 0.002400302 -0.0031387927 -0.00027153332
000030 7b fe 28 ba 6a b6 fb ba 32 7c fb 38 c6 c0 2f b8
       -0.0006446612 -0.0019204144 0.00011991746 -4.1902786e-05
000040 67 16 a4 ba 86 2f 78 ba 4a 4b 0e bd 8a 18 a2 bb
       -0.0012518883 -0.0009467531 -0.03473977 -0.004946773
000050 f0 25 0b 3b e2 c4 9d bd 81 79 26 bd 43 26 32 bc
       0.002123233 -0.07703568 -0.04064322 -0.01087338
000060 74 59 fe 3c 5e e4 32 bc 67 1f 09 3d d9 8a 09 3d
       0.031048514 -0.010918705 0.033477213 0.03357968
000070 c8 c0 b7 bb c3 a3 d9 bc 87 ff 43 3c e0 53 a1 bd
       -0.005607698 -0.026567345 0.011962778 -0.07877326
000080 0e 55 a9 bd 1b fb 66 bc d5 bc 2a bd 94 6e 40 bd
       -0.08268176 -0.014097954 -0.04168399 -0.046980456
000090 55 b3 01 3c ba 53 71 3a 8d 7a 37 bd d9 d0 37 3c
       0.007916291 0.00092058966 -0.044794608 0.011219227
0000a0 87 4d f8 bc a6 4e 33 bd 01 38 43 bd 89 e7 24 bd
       -0.030310405 -0.043776177 -0.04766083 -0.04025987
0000b0 da b6 34 bd 7b 9b 8e bd 47 b3 cc 3b 45 bd ca 3d
       -0.044119693 -0.06963249 0.0062469575 0.098993815
0000c0 c7 e9 03 be a5 64 6b bc 05 e1 3d 3d 3c 72 bc bd
       -0.12882148 -0.014367257 0.046357173 -0.09201476
0000d0 88 74 10 be 45 86 70 3b 90 fa cb bc 35 cc 5b bd
       -0.14106953 0.0036701125 -0.024899751 -0.053661544
0000e0 ed 55 01 3d 2c bd 48 bd b6 9e b3 bc dc a7 07 3d
       0.031576086 -0.049008533 -0.021926265 0.033119068
0000f0 9a 28 6c bc 81 24 07 bd ae 8f 0a 3d 7a 7a 23 3c
       -0.014413977 -0.032993797 0.03382843 0.009977931
000100 04 d5 6a 3d 15 76 3a bd c3 93 2d bc 6f 91 c0 3b
       0.057332054 -0.045522768 -0.010594311 0.005876712
000110 79 66 b2 bc aa 89 7b 3c 58 64 d4 bc 64 49 a0 3c
       -0.021777378 0.015352646 -0.025926754 0.019566245
000120 17 f8 09 bc 56 84 05 3d 70 48 96 bd 57 c5 44 bd
       -0.008420966 0.03259691 -0.07338035 -0.04803976
000130 c5 3c 4e 3c ba 45 a5 bd 76 43 f8 bc 3d 68 e1 bc
       0.012587731 -0.0806994 -0.030305605 -0.027515525
000140 f6 9a 1a bd b6 35 09 bd 2e 20 fd 3b 03 f8 b3 bd
       -0.03774544 -0.03349849 0.0077247834 -0.08787539
000150 d0 bd c7 bc c2 34 11 bd 64 6c c1 bd aa ea 44 bd
       -0.024382502 -0.035450704 -0.09444502 -0.048075356
000160 40 a3 73 3d 39 d4 ff ba ba 83 01 bc 73 1b fa bc
       0.05948186 -0.0019518203 -0.007904941 -0.030530667
000170 d3 52 42 bd 0d 16 2b bd 1f ca a1 bd e1 5d c5 bc
       -0.04744227 -0.041769076 -0.0789988 -0.024092617
000180 ed 0f a9 bd a6 7e 80 bd 7c 30 5d bd 89 4f 18 bd
       -0.08254991 -0.06274156 -0.054001316 -0.037185226
000190 a7 9e 36 bc 9b f8 39 bd 31 44 c6 bc f6 2d aa bd
       -0.011146224 -0.045403104 -0.024202438 -0.083095476
0001a0 d7 8a a4 bb 99 4e 5b bd 13 0d c6 bd 01 4a 50 b9
       -0.005021434 -0.053541753 -0.096704625 -0.00019863994
0001b0 8e be 90 3c f6 b6 ca 3b 80 74 84 bc ab 93 57 bb
       0.017668989 0.0061863614 -0.016168833 -0.0032894413
0001c0 a8 09 2f 3c cb e9 cd 3a 61 99 a9 3b 7a ec e3 bb
       0.010683455 0.0015709935 0.005175755 -0.0069556804
0001d0 6b 0e 58 bc 0e db 7e 3c ec 5d 0d bc 7b 30 f1 bd
       -0.013187031 0.015555156 -0.00862835 -0.11776825
0001e0 e3 46 65 3c b1 90 a2 3c 73 36 86 bd bc 11 33 bc
       0.0139939515 0.019844385 -0.06553354 -0.010929521
0001f0 d0 77 54 3c 0d 09 5e 3c d7 69 fa 3b 01 4f 5d bb
       0.012968019 0.013551963 0.0076420116 -0.0033769014
000200 c0 0c 12 bd 57 ac 8d bb 13 5b 51 bc 09 8c af bc
       -0.03565669 -0.004323523 -0.012778061 -0.021429079
000210 d8 17 30 bd c0 b5 03 3d 8f c3 91 bb ad e5 a3 bd
       -0.04299149 0.032155752 -0.004448361 -0.080027916
000220 f5 cc 78 bd d8 05 0b 3d 47 89 91 bd 2a 24 ad bd
       -0.060742337 0.03394112 -0.07106262 -0.08454163
000230 e4 e0 20 3c 1e 73 71 bd 78 1a fa bd 95 fb 74 bd
       0.009819243 -0.058947675 -0.1221208 -0.05981024
000240 8d 99 be bc 28 7b 00 bd 15 76 01 bd e5 d7 f3 bb
       -0.023266578 -0.03136745 -0.031606752 -0.007441508
000250 94 51 80 bc 2d 85 7c 3d 00 82 d5 bc 1f 60 03 bd
       -0.0156639 0.061650444 -0.026062965 -0.03207409
000260 2b 9b 58 3c 2b c3 e5 3c ce 58 ab 3c f2 54 26 bd
       0.013220589 0.028047165 0.020916369 -0.040608354
000270 09 cd d9 3c 2f bb a2 bc f1 49 dd bd b6 32 27 bc
       0.026587026 -0.019864647 -0.10805119 -0.0102049615
000280 9c 73 50 bc fa 09 e3 bc b3 f7 22 3d 52 ad 4f bd
       -0.012722876 -0.027714718 0.039787006 -0.0507024
000290 92 27 48 bd 47 a9 56 bb 74 b2 d5 bc 0a 13 34 bd
       -0.048865862 -0.0032754706 -0.02608607 -0.04396347
0002a0 9b fe 54 bd fc 25 0e bb 63 e1 df bb e2 b5 b3 3c
       -0.052000623 -0.002169012 -0.006832288 0.021937314
0002b0 b1 7d 95 3c 3e 02 e7 bc 9c 1a 9a 3b 2f f8 98 bc
       0.01824841 -0.028199311 0.004702879 -0.01867303
0002c0 80 a7 49 bc a8 b6 79 b8 7a e0 81 bc 96 0a 34 3d
       -0.0123080015 -5.9536338e-05 -0.01585411 0.043955408
0002d0 d4 df 02 3d e2 6f 95 bc 75 5e 10 bd a9 ba e5 bc
       0.03195174 -0.018241826 -0.03524633 -0.028043108
0002e0 2c 06 71 bc 84 11 81 bd 67 84 60 3b a0 70 09 bb
       -0.014710944 -0.06302169 0.0034258605 -0.002097167
0002f0 33 a2 86 bc b4 9e b0 ba e4 b2 ca bb 3d 90 09 bc
       -0.016434764 -0.0013475032 -0.006185876 -0.0083962055
000300 4c e5 4d bc 93 d9 e8 3b e7 a7 58 bd 27 fe 0e bc
       -0.012566876 0.007106015 -0.0528945 -0.008727587
000310 29 17 9e 3b ac 6f 55 bd d9 3a 42 bd 76 6a 4e bd
       0.0048245382 -0.05210845 -0.047419403 -0.050394498
000320 58 dd 6c bd 61 4c 81 bc e7 83 e0 bc 9c f7 12 bd
       -0.057828277 -0.01578349 -0.027406646 -0.03588067
000330 f7 54 12 bc ee aa 01 3b 7f aa 0a bd e9 59 63 bb
       -0.00893139 0.001978572 -0.033854004 -0.0034691042
000340 e0 4e 76 bc 88 c5 da ba 4b d8 6b bd 96 b7 96 bc
       -0.015033454 -0.0016690949 -0.05757932 -0.018398087
000350 2c 4b 8d 3c 3f e4 78 3c b0 a8 01 bd 07 bb b1 39
       0.017247759 0.015191137 -0.031655014 0.00033899417
000360 22 21 05 be ea 0a ae bc 83 9c 81 3c d1 99 88 bd
       -0.1300092 -0.021245439 0.0158217 -0.06669963
000370 97 bc a4 bd de c0 6c 3d 9b 2a b3 bb e7 b7 30 be
       -0.08043783 0.05780112 -0.0054677255 -0.17257653
000380 53 38 2f bc d2 de 4f 3c f9 14 ad 3c 2a ea 7c 3c
       -0.010694581 0.012687402 0.021128165 0.015436688
000390 95 ad ee bc fc 8e 61 bc c9 d7 d3 3b c7 c2 0d bd
       -0.029135505 -0.013767 0.0064649326 -0.034609582
0003a0 81 3a 7c bb 84 5f 84 3b ac 80 08 bc 16 04 84 3b
       -0.003848702 0.0040397067 -0.008331459 0.0040288074
0003b0 7f 4a 24 bb dd f5 f5 3b c9 b9 31 bb cf 0c 86 ba
       -0.0025068817 0.007506116 -0.0027118793 -0.0010227206
0003c0 a0 28 b3 bb 5e ee a0 38 05 d7 2f 3b 4f 1c 73 bc
       -0.0054674894 7.673794e-05 0.0026831042 -0.014838292
0003d0 ec 5f 1c bd 87 e5 e2 bc f9 65 31 bb dd e0 62 3c
       -0.038177416 -0.027697338 -0.0027068837 0.013847557
0003e0 ff 03 b4 3b 1b dd a0 bc 55 cf c0 bc 83 07 07 3c
       0.0054936404 -0.019636681 -0.023536364 0.008241537
0003f0 bf f4 59 3c 26 00 2c bd 2f c2 68 bd ca 60 9f bd
       0.013302981 -0.04199233 -0.056825813 -0.07782133

conv2d_2/bias:0 f4 [64]
000000 ef a6 50 3d 38 96 e2 3d c9 dc c6 bc 68 93 07 3e
       0.05094045 0.11063808 -0.0242752 0.13239825
000010 de ce 5d bd 74 96 0e 38 d7 00 5b 3e b6 af 50 3d
       -0.054152362 3.399556e-05 0.21387039 0.05094882
000020 33 25 42 3e b4 b1 7c bc 56 17 52 be 47 21 c3 3c
       0.18959503 -0.015423227 -0.20516714 0.023819579
000030 c2 b7 e9 3d f2 af 83 3d 38 8b 05 bd aa d5 34 be
       0.11412002 0.06430043 -0.032603472 -0.17659631
000040 83 0b 18 3d 11 7d 6b bd c0 e8 16 bc 9e b3 dd 3d
       0.037120353 -0.05749232 -0.009210765 0.10825275
000050 d5 51 a6 bd b4 f1 cb 3d 88 02 0e 3d a7 b9 c6 bc
       -0.08121077 0.099582106 0.034670383 -0.024258448
000060 d6 0f 95 3d 05 7b 92 3d 79 eb c7 bd 98 44 46 3d
       0.07278411 0.0715237 -0.0976171 0.04840526
000070 0a 06 3a 3c 79 95 45 bc c9 1d 0d bd 23 af aa 3d
       0.011353979 -0.012059563 -0.034452233 0.08334186
000080 d1 15 9c bd cf 88 7f bd 96 33 03 bd da a4 14 3d
       -0.07621349 -0.06238633 -0.032031618 0.036290027
000090 67 2e 0f 3d 2d 26 9b bd 4d a6 c5 bc 41 73 a3 3d
       0.034956362 -0.07575641 -0.02412715 0.07980967
0000a0 cd e9 e6 3c e0 92 56 3d b4 63 04 be fb ed 47 3d
       0.028187657 0.052386165 -0.12928659 0.04881094
0000b0 c8 71 55 3d d4 fd 2c 3e a8 f1 6e 3d 7b 84 a0 bd
       0.052110463 0.16893703 0.05833593 -0.07837769
0000c0 ad 92 82 bd 57 a5 cf bc c1 05 77 bc 79 43 1e bd
       -0.063756324 -0.025347395 -0.015077055 -0.038638566
0000d0 34 76 eb 3d eb 8c 80 3a 1d 15 73 3d 17 4d b3 bd
       0.11497155 0.0009807622 0.059346307 -0.08754938
0000e0 47 7b af 3b 47 cb df 3c 8d 10 fb 3d 33 99 cf 3d
       0.005355272 0.02731861 0.12259016 0.10136642
0000f0 3d b9 d3 bb bf 15 34 3d 2a 6c a1 bc 99 46 db 3d
       -0.006461291 0.04396605 -0.019704897 0.10706825

scale1 f4 [32]
000000 06 6b 15 42 f3 19 fb 41 99 b9 17 42 0b 9e fe 41
       37.354515 31.38767 37.931248 31.82717
000010 af 4a 06 42 1a a8 ed 41 4d 0f ca 41 ff ab f1 41
       33.572933 29.70708 25.257471 30.208982
000020 ec a5 f2 41 65 64 e0 41 5c e2 e6 41 b2 5a dc 41
       30.331017 28.04902 28.860527 27.544285
000030 62 a6 16 42 ad e5 de 41 6a 6a cc 41 76 3a eb 41
       37.662483 27.862146 25.55196 29.403545
000040 84 9e bb 41 7f 7b f7 41 90 4e 0f 42 54 a4 d8 41
       23.4524 30.9353 35.82672 27.080238
000050 ce a2 d0 41 27 61 d4 41 03 2b 06 42 20 1a 08 42
       26.079494 26.547438 33.542004 34.025513
000060 0d b6 ef 41 ee 4f 08 42 9c ec 01 42 03 f4 db 41
       29.963892 34.078056 32.481064 27.494146
000070 39 c7 b9 41 e7 06 06 42 9b 4c d7 41 32 82 05 42
       23.222277 33.50674 26.912405 33.377144

bias1 f4 [32]
000000 b4 00 d6 bc a8 c5 5d bb 68 0a ab be 0c d8 6a bd
       -0.026123382 -0.0033839736 -0.33406377 -0.057334945
000010 40 85 2c bd 13 19 2c be 15 00 cb be ce 58 5d be
       -0.042119265 -0.1680644 -0.396485 -0.21615908
000020 d4 be ac be a6 0d 07 bf bb a2 b9 be 91 97 29 be
       -0.3373934 -0.527552 -0.36256966 -0.16561724
000030 24 01 0d bc ac 30 c0 be 90 9b 86 be be 85 e8 be
       -0.008606229 -0.37537134 -0.2629056 -0.45414537
000040 48 0f 8d be 71 d4 66 be 1a 98 16 bd 5a 5e 9d bd
       -0.2755072 -0.22541977 -0.03676615 -0.07684012
000050 0d 6e f5 be a0 b8 97 bd c0 3c 90 bd e7 1c d7 bc
       -0.47935525 -0.07408261 -0.07042837 -0.026258899
000060 63 24 f7 be 40 40 57 3b fe dc 32 3b c4 d1 48 be
       -0.48269948 0.0032844692 0.0027292366 -0.19611269
000070 cf b6 82 be 7c 05 56 bd 2c bf dd be d7 66 08 bf
       -0.25530097 -0.052251324 -0.43309915 -0.5328192

mean1 f4 [32]
000000 00 00 00 00 00 00 00 00 00 00 00 00 00 00 00 00
       0.0 0.0 0.0 0.0
000010 00 00 00 00 00 00 00 00 00 00 00 00 00 00 00 00
       0.0 0.0 0.0 0.0
000020 00 00 00 00 00 00 00 00 00 00 00 00 00 00 00 00
       0.0 0.0 0.0 0.0
000030 00 00 00 00 00 00 00 00 00 00 00 00 00 00 00 00
       0.0 0.0 0.0 0.0
000040 00 00 00 00 00 00 00 00 00 00 00 00 00 00 00 00
       0.0 0.0 0.0 0.0
000050 00 00 00 00 00 00 00 00 00 00 00 00 00 00 00 00
       0.0 0.0 0.0 0.0
000060 00 00 00 00 00 00 00 00 00 00 00 00 00 00 00 00
       0.0 0.0 0.0 0.0
000070 00 00 00 00 00 00 00 00 00 00 00 00 00 00 00 00
       0.0 0.0 0.0 0.0

var1 f4 [32]
000000 00 00 80 3f 00 00 80 3f 00 00 80 3f 00 00 80 3f
       1.0 1.0 1.0 1.0
000010 00 00 80 3f 00 00 80 3f 00 00 80 3f 00 00 80 3f
       1.0 1.0 1.0 1.0
000020 00 00 80 3f 00 00 80 3f 00 00 80 3f 00 00 80 3f
       1.0 1.0 1.0 1.0
000030 00 00 80 3f 00 00 80 3f 00 00 80 3f 00 00 80 3f
       1.0 1.0 1.0 1.0
000040 00 00 80 3f 00 00 80 3f 00 00 80 3f 00 00 80 3f
       1.0 1.0 1.0 1.0
000050 00 00 80 3f 00 00 80 3f 00 00 80 3f 00 00 80 3f
       1.0 1.0 1.0 1.0
000060 00 00 80 3f 00 00 80 3f 00 00 80 3f 00 00 80 3f
       1.0 1.0 1.0 1.0
000070 00 00 80 3f 00 00 80 3f 00 00 80 3f 00 00 80 3f
       1.0 1.0 1.0 1.0

conv2d_1/kernel:0 f4 [32, 1, 3, 3]
000000 1d 7e 4f 3d 35 f0 c6 bd af f8 1b be a9 e2 d6 3d
       0.05065738 -0.097137846 -0.15231584 0.10492451
000010 1c c0 06 bd 40 2c 01 be a9 8f 03 3e 51 6b b1 bd
       -0.032898054 -0.12614536 0.12847771 -0.08663047
000020 f1 ba fc bd 3d e4 f7 0c cf 8d e2 8c 77 5d ee 8c
       -0.12340344 3.8193742e-31 -3.4906161e-31 -3.6725958e-31
000030 95 00 f4 8c 9c 42 e5 0c ec bf fb 8c dc 7d f1 8c
       -3.7594503e-31 3.5323126e-31 -3.8788182e-31 -3.7207678e-31
000040 96 49 e6 8c fb 8d e8 8c cb bc 99 bd ca 88 fc 3d
       -3.54814e-31 -3.583071e-31 -0.075067125 0.12330778
000050 58 72 a3 3c 89 79 c4 bd 11 bd e5 3d a7 84 c4 bd
       0.019951984 -0.095934935 0.11217702 -0.09595614
000060 75 3b ce 3d fe 85 86 3c a2 71 c2 bd ae a6 c5 bc
       0.10069934 0.016421314 -0.0949433 -0.02412733
000070 54 2f 8f bc 97 80 3f 3c b6 33 12 be 87 87 a8 3c
       -0.017478622 0.011688373 -0.14277539 0.020572437
000080 4a 60 05 be b2 0c 4a bd 87 3d bb bc e3 b1 8c bc
       -0.13025013 -0.049328513 -0.022856487 -0.017174667
000090 80 e7 c0 3d f2 fd 1f bd 55 da e0 bb 23 2c f3 bc
       0.09419155 -0.03906054 -0.0068619647 -0.029684132
0000a0 39 c3 0c bd 21 3f de bd 94 4e 08 be 06 0b f9 bd
       -0.034365866 -0.10851885 -0.13311225 -0.12160306
0000b0 5d 2e ad 3d 27 9b 1b 3d dc d1 97 bc cf 0a db bd
       0.08456109 0.03798976 -0.018532686 -0.10695421
0000c0 c1 0d 3d 3d 57 e3 8f 3d 96 0d fa bd b0 cd c8 3b
       0.046155695 0.070257835 -0.122096226 0.0061280355
0000d0 51 b8 b8 3d 57 eb c4 bc e9 dd 00 3e 00 e0 27 3d
       0.090195306 -0.024038 0.12584652 0.040985107
0000e0 08 9f 0a be ad ee 5c 3c f2 90 d0 bb b8 3b 8b 3d
       -0.13537228 0.013484639 -0.006364935 0.067985
0000f0 54 b6 62 bd 97 c0 b5 3d f4 21 00 be 47 ab a9 3b
       -0.055349663 0.08874624 -0.12512952 0.0051778886
000100 a8 27 f9 3d 85 4c 31 bd d8 d5 d9 bd df af 03 be
       0.12165767 -0.043285865 -0.106364906 -0.12860058
000110 82 0e e2 3d 8a 1f 35 be fe ec da 3d 76 d6 d9 3d
       0.110379234 -0.17687812 0.10689734 0.10636608
000120 c7 a6 1b 3c 6c bd e8 bc 4a 28 22 3e 18 1a 61 bd
       0.009500212 -0.028410636 0.15835682 -0.054956526
000130 d0 eb e1 bd 46 d3 79 bc fc a2 fe bd 9a fd b3 3c
       -0.11031306 -0.015248125 -0.124334306 0.021971513
000140 fd ba 1c 3e d6 57 9a bc 59 0b be bd bc 2a 30 3e
       0.15305705 -0.018840712 -0.09279508 0.17203802
000150 0b 6d e8 bd 03 13 9c bd 74 a1 fa 3d e7 ec db bb
       -0.11348923 -0.07620814 0.12237826 -0.0067115906
000160 7a e8 f2 bc f2 18 78 3d 82 ef 1b 3e 22 1c 99 3d
       -0.02965187 0.060570665 0.15228084 0.07476069
000170 9b ab 0c bd 1f a5 8d 3d 19 d5 b2 bd dc 4b 19 bd
       -0.034343343 0.0691626 -0.087320514 -0.03742586
000180 e4 b8 de bd f1 e7 ba bd c8 f0 84 3d 82 af ef 3d
       -0.10875109 -0.091262706 0.06491238 0.11703397
000190 e1 02 b6 3d 9c 84 17 be 4a 38 e1 ba 5d d5 4f 3d
       0.08887268 -0.1479668 -0.0017182913 0.05074059
0001a0 32 83 14 bc e7 d0 c9 3b 22 9e c3 bd 39 8e 01 bd
       -0.0090644825 0.0061589363 -0.09551646 -0.031629775
0001b0 eb 44 93 bd 2d a4 2b bd ff c4 50 3e 90 46 3c be
       -0.071908794 -0.041904617 0.20387648 -0.18386292
0001c0 89 ff 05 be 2a 93 80 bd 27 c2 8a bd 41 10 d3 bd
       -0.1308576 -0.06278069 -0.06775313 -0.103058346
0001d0 dc 80 6e 3d 0c 36 80 bd 85 87 e4 3d 22 98 d3 3d
       0.05822836 -0.062603086 0.11158661 0.103317514
0001e0 a4 30 29 be 22 f7 a0 bd 8f 77 2f 3e 53 c1 42 3c
       -0.16522461 -0.07859637 0.17135452 0.011886912
0001f0 cf 9e dc bd 47 89 e7 3c 08 6e b7 bd c5 92 1f bc
       -0.10772478 0.028263701 -0.08956534 -0.009739582
000200 d5 bf 58 3b cb 11 3a bd 3d f1 5c bd d7 f7 1d 3e
       0.0033073325 -0.045427125 -0.053941 0.15426575
000210 98 64 ff bd 19 36 b9 3d 3d 10 9d 3d c9 33 43 3d
       -0.124703586 0.090435214 0.07669113 0.047656808
000220 b4 2d 26 be ab 46 f0 bc b8 ce 21 3e 76 7b f5 bb
       -0.16228372 -0.029330572 0.15801513 -0.0074915243
000230 34 90 9f ba c1 5e fb 3d cb 24 42 bd df ab 9f bd
       -0.0012173713 0.12273932 -0.04739837 -0.07796454
000240 8e d3 26 bd 66 c8 fa bd ba ea 31 be b0 63 b7 bd
       -0.040729098 -0.12245254 -0.17374697 -0.08954561
000250 38 86 cf 3d 5d 17 f3 3d b5 44 95 bc f2 c4 12 3e
       0.10133022 0.118696906 -0.018221239 0.14332941
000260 8e 88 a8 3d 48 97 23 bd e3 88 07 3e 84 77 f5 3d
       0.08229171 -0.039939195 0.13235812 0.119856864
000270 1c e7 66 3c 06 55 e5 bd f7 98 49 3b 86 0f b0 bd
       0.014093187 -0.111978576 0.003076134 -0.08596711
000280 b7 84 af 3d 3c 07 06 be 8c 72 17 be 6b 09 3c be
       0.08570235 -0.13088697 -0.1478979 -0.18362968
000290 18 cb 5c 3d 54 9d 34 be 9e 67 d4 bd c2 04 bd 3d
       0.053904623 -0.17638141 -0.10371326 0.09229423
0002a0 85 50 e4 3c a4 b3 d6 bd 48 14 dd bd e6 50 04 bd
       0.027870426 -0.104834825 -0.10794884 -0.032303713
0002b0 0c 0b 01 bd a3 fb 8f bc c1 70 38 3c 41 29 d6 bd
       -0.031504676 -0.017576044 0.011257351 -0.10457087
0002c0 09 79 b7 bc 51 08 8f bc 82 fc 8a 3d 11 87 f6 3d
       -0.022396581 -0.01746002 0.06786443 0.120374806
0002d0 0a 38 9b 3d 83 dc 14 bd fe d9 18 3e 53 d9 1d be
       0.07579048 -0.03634311 0.14926907 -0.15414934
0002e0 87 b1 cd 3d 30 29 b9 bd 25 b1 5f 3d 26 11 20 bd
       0.10043626 -0.09041059 0.054612298 -0.039078854
0002f0 83 ae 60 bd c6 62 fb 3d df 16 bc 3c 59 70 f3 bb
       -0.054853927 0.12274699 0.022960125 -0.0074291644
000300 04 5d b0 bd ae 47 ae bc 74 4b 8d 3c f6 75 f6 bb
       -0.08611491 -0.021274414 0.017247893 -0.0075213863
000310 fb 00 a6 3d 5c 67 2e be 98 91 d0 bd 63 cb 86 bd
       0.08105656 -0.17031616 -0.1018402 -0.06581762
000320 6e b6 68 3d 4f 92 36 bd 32 d0 73 bd 63 8e 6b 3d
       0.056814604 -0.044573124 -0.059524722 0.057508837
000330 d3 3a af bc 63 30 70 bc 48 17 2d 3e 32 b2 3d 3d
       -0.021390354 -0.014659974 0.16903412 0.04631252
000340 b7 1e df bd 07 e9 0c be 0f 1a 08 3e 9e c0 f6 bd
       -0.1089453 -0.13760768 0.1329119 -0.120484576
000350 79 53 bc bd ae 2e 54 bb aa 24 e3 bc 6d 3c 5b 3c
       -0.09195609 -0.0032376456 -0.027727444 0.013381106
000360 08 bd 05 3c ac 33 2a 3d ff 80 74 bd 4b 8f d1 3d
       0.008162744 0.041553184 -0.059693333 0.10232409
000370 db 33 9a bd 31 99 2c be e7 0b 8e 3d 46 c5 0a 3e
       -0.07529422 -0.16855313 0.06935864 0.13551816
000380 0b 9b 60 bd 9c 53 d9 bd 53 97 3c bd 74 c7 af 3d
       -0.05483536 -0.1061165 -0.04604275 0.085829645
000390 4e 75 5a 3d 82 53 29 3c 00 bb 05 3e 2a fc 01 be
       0.053334527 0.010334851 0.13059616 -0.12693849
0003a0 80 3f f8 bd 72 ec 3c 3d cf 84 e9 8c b2 05 ea 8c
       -0.12121487 0.04612393 -3.5979265e-31 -3.6056836e-31
0003b0 ad f2 ee 8c 7e 9c e5 8c 3c 8b e9 8c 2f 5a ed 8c
       -3.6815761e-31 -3.5377222e-31 -3.5983133e-31 -3.656991e-31
0003c0 cc 46 e4 0c c5 38 ea 8c d3 06 ea 8c fe d3 e3 bd
       3.5171572e-31 -3.6087575e-31 -3.6057516e-31 -0.11124419
0003d0 3a 27 00 be 93 a8 54 bd 14 ba 57 3d f2 8e b5 3d
       -0.12514964 -0.051918577 0.052667692 0.08865155
0003e0 d9 ea cc 3c a3 c4 8b bc 89 5b 53 bd b5 97 29 3e
       0.025014328 -0.017061537 -0.051600967 0.16561778
0003f0 e2 e6 2d 3e f1 7b 06 3e ec da 83 3d 39 4d ae bd
       0.16982606 0.13133217 0.064382404 -0.08510823
